assets/models/model_fp16.tflite (tflite, 124724 bytes, 20 tensors)

arith.constant f2 [32]
-0.0645 0.06223 -0.08704 0.00417 -0.01724 0.08124 -0.05972 -0.03375
0.00527 -0.1137 -0.03598 -0.0386 0.1938 0.1459 -0.03485 -0.03687
-0.1343 -0.1043 0.04837 0.0217 0.09314 0.0973 0.03427 0.138
0.1272 0.03458 0.03812 0.0363 0.07324 -0.09357 -0.02345 0.0217
00000000: 21ac f72b 92ad 451c 6aa4 332d a5ab 52a8
00000010: 651d 47af 9ba8 f1a8 3432 ab30 76a8 b8a8
00000020: 4cb0 adae 312a 8e25 f62d 3a2e 6328 6a30
00000030: 1230 6d28 e128 a528 b02c fdad 01a6 8e25

arith.constant1 f2 [32, 3, 3, 1]
-0.44 0.0717 0.425 -0.2832 -0.001498 0.1383 -0.0791 -0.07007
-0.1664 -0.37 -0.1575 -0.4026 -0.362 -0.1979 0.1372 -0.07306
-0.01785 0.527 0.668 -0.2695 0.4553 0.3506 -0.05444 0.3826
0.07294 0.1576 0.00213 0.5063 0.3057 -0.3792 0.02654 0.01782
-0.1887 -0.4087 0.347 0.07806 0.3809 0.0549 0.367 0.4482
0.0921 0.4353 0.0852 -0.2465 0.2424 0.2896 -0.4463 0.3154
0.5684 -0.1935 0.592 -0.834 0.296 -0.1754 0.2264 0.1921
-0.05365 0.4756 0.12036 0.10754 0.4905 0.02098 0.0127 0.163
-0.1852 0.6094 -0.2695 0.253 0.1962 -0.324 0.04172 0.12445
0.3694 0.2297 -0.7812 -0.4033 -0.2314 -0.08997 -0.503 0.376
0.1431 0.2705 0.2524 -0.316 -0.1032 -0.12115 -0.4573 0.204
-0.09515 -0.2844 0.11 -0.05927 -0.11743 -0.1209 0.275 0.161
-0.2292 0.5156 0.3513 -0.4321 0.3713 -0.08386 -0.1741 0.1039
0.2042 -0.318 0.1488 0.372 0.5176 -0.332 -0.1558 0.04404
-0.0585 -0.0339 -0.531 0.07745 0.526 0.1666 -0.1178 0.02069
0.000872 -0.1978 -0.10394 0.1793 -0.4688 -0.2551 -0.0812 0.4573
0.6616 0.02644 -0.3328 0.477 0.3806 0.000915 -0.3943 0.9595
0.1165 0.02129 -0.1652 -0.26 -0.09814 0.0763 -0.1926 -0.227
0.0544 -0.1876 0.1932 0.10034 -0.334 0.317 -0.0495 -0.328
0.4768 -0.2986 -0.0755 -0.5513 -0.02414 -0.5586 -0.05002 -0.12366
0.4001 0.548 0.1808 0.1416 -0.341 0.1779 0.03075 -0.08246
0.392 0.257 -0.1888 0.672 0.5664 0.6577 -0.2595 -0.5156
-0.1659 -0.1272 0.05457 -0.3108 -0.0953 -0.0918 0.4084 0.0659
0.193 0.02354 0.422 0.307 0.205 -0.735 -0.359 -0.1553
-0.297 0.004738 0.0449 0.1991 0.09546 -0.0717 -0.2551 0.3774
0.5776 -0.1449 0.01564 -0.0663 -0.1731 -0.532 -0.2378 0.2482
-0.2712 -0.2751 0.03897 -0.4675 -0.0293 -0.5376 0.06647 -0.06714
0.4336 -0.1624 -0.2428 -0.1448 0.1489 -0.2625 0.07776 -0.3154
-0.269 0.5146 -0.237 -0.2534 0.2151 -0.1571 -0.199 -0.3948
-0.2554 -0.03687 0.4602 0.3113 0.417 0.1819 0.386 -0.3726
0.08594 -0.074 -0.12384 0.1422 -0.1714 0.3284 0.0894 -0.1436
-0.2416 0.4678 0.04788 -0.5894 0.436 -0.727 0.0895 0.05206
00000000: 0ab7 972c cd36 88b4 2396 6d30 10ad 7cac
00000010: 53b1 ecb5 0ab1 71b6 cbb5 55b2 6430 adac
00000020: 92a4 3738 5839 50b4 4937 9c35 f8aa 1f36
00000030: ab2c 0b31 5d18 0d38 e434 11b6 cb26 9024
00000040: 0ab2 8ab6 8d35 ff2c 1836 072b df35 2c37
00000050: e52d f736 742d e3b3 c233 a234 24b7 0c35
00000060: 8c38 31b2 bc38 acba bc34 9db1 3f33 2632
00000070: deaa 9c37 b42f e22e d937 5f25 8122 3731
00000080: edb1 e038 50b4 0c34 4732 2fb5 5729 f72f
00000090: e935 5a33 40ba 74b6 68b3 c2ad 06b8 0436
000000a0: 9430 5434 0a34 0eb5 9bae c1af 51b7 8732
000000b0: 17ae 8db4 0a2f 96ab 84af bdaf 6634 2731
000000c0: 56b3 2038 9f35 eab6 f135 5ead 92b1 a62e
000000d0: 8932 17b5 c330 f435 2438 50b5 fcb0 a329
000000e0: 7dab 57a8 3fb8 f52c 3538 5531 8aaf 4c25
000000f0: 2513 54b2 a7ae bd31 80b7 15b4 32ad 5137
00000100: 4b39 c526 53b5 a237 1736 7f13 4fb6 ad3b
00000110: 752f 7325 49b1 29b4 48ae e22c 2ab2 44b3
00000120: f72a 01b2 2f32 6c2e 58b5 1235 56aa 3fb5
00000130: a137 c7b4 d5ac 69b8 2ea6 78b8 67aa eaaf
00000140: 6736 6238 c931 8830 75b5 b131 df27 47ad
00000150: 4636 1d34 0bb2 6039 8838 4339 27b4 20b8
00000160: 4fb1 12b0 fc2a f9b4 19ae e0ad 8936 382c
00000170: 2d32 0726 c136 e934 8f32 e1b9 beb5 f8b0
00000180: c1b4 da1c bf29 5f32 1c2e 97ac 15b4 0a36
00000190: 9f38 a3b0 0124 3eac 8ab1 42b8 9cb3 f133
000001a0: 57b4 67b4 fd28 7bb7 80a7 4db8 412c 4cac
000001b0: f036 32b1 c5b3 a2b0 c430 33b4 fa2c 0cb5
000001c0: 4eb4 1e38 96b3 0eb4 e232 07b1 5eb2 51b6
000001d0: 16b4 b8a8 5d37 fb34 ac36 d231 2d36 f6b5
000001e0: 802d bcac edaf 8d30 7cb1 4135 b92d 98b0
000001f0: bbb3 7c37 212a b7b8 fa36 d1b9 ba2d aa2a

arith.constant3 f2 [232]
-0.004463 -0.02077 -0.00253 0.02371 0.02371 -0.02449 -0.05032 -0.01557
-0.01874 -0.0397 0.03445 -0.00699 -0.02106 0.0001297 -0.01276 -0.01039
-0.0114 -0.00578 0.00676 -0.001664 -0.009155 0.02335 0.00316 0.01802
0.01736 0.01556 0.01102 -0.0127 0.0298 -0.02713 0.00854 -0.00446
0.01069 0.01993 0.003191 -0.05573 -0.00866 -0.02824 -0.00702 0.046
0.02634 0.01007 -0.01158 0.01738 -0.01372 -0.03287 -0.0172 0.002033
0.001847 0.03952 0.0282 0.04617 -0.0224 -0.01312 -0.05258 0.002214
-0.06384 -0.02164 -0.02177 -0.01935 0.0265 0.02745 0.0241 0.01773
0.03082 0.00958 0.01717 -0.001263 0.0387 -0.00951 -0.01417 0.01379
-0.008675 -0.003658 0.002953 0.008484 -0.01067 0.0235 0.01037 -0.001101
-0.006397 -0.001416 0.00856 0.005035 0.01107 0.004826 0.01128 0.00394
-0.003906 -0.002502 -0.0006814 0.01665 -0.005497 -0.010185 -0.00841 -0.007557
0.00801 -0.001293 0.01432 -0.0001483 -0.00857 0.0104 0.002752 -0.002712
-0.001421 0.01611 -0.00553 0.004284 -0.001746 0.002144 -0.00562 0.003357
-0.007523 -0.01221 0.006226 0.01689 -0.00932 -0.002615 0.004654 0.003914
-0.006462 0.004208 -0.011795 0.015335 -0.00858 -0.004288 -0.02547 0.01477
-0.003843 0.011345 -0.001934 -0.01249 0.004547 0.00382 -0.00536 0.00548
-0.006634 0.004356 -0.01014 -0.01715 0.006256 0.0114 0.02963 0.01113
0.0316 0.02466 0.003078 0.006374 -0.00336 -0.014656 0.01701 -0.02504
-0.0492 -0.01828 -0.05643 -0.003178 -0.0357 -0.02803 -0.00569 -0.01541
-0.04 -0.02754 -0.04547 -0.03665 -0.02156 -0.024 -0.02905 -0.000872
-0.0338 -0.01717 0.02777 0.02827 -0.03854 0.010864 -0.02551 0.001574
0.002468 0.02821 -0.046 -0.001402 0.01001 0.03824 -0.01733 0.0224
0.02759 -0.01978 -0.0637 -0.028 -0.004906 0.004684 0.02283 0.003555
-0.00728 -0.01907 0.04 0.03607 -0.0006084 0.00651 -0.014244 -0.01656
-0.02696 -0.02026 -0.0416 7.36e-05 0.03026 -0.05667 -0.0579 -0.05734
-0.02715 -0.0186 0.0136 0.03375 0.03677 0.012505 -0.0577 -0.02008
-0.006615 -0.01328 0.02983 -0.02559 0.0048 0.04187 0.000617 0.03348
0.003487 -0.03748 -0.03056 -0.045 0.01924 0.02156 -0.00981 -0.02068
00000000: 929c 51a5 2e99 1226 1226 45a6 71aa f9a3
00000010: cca4 15a9 6928 289f 64a5 4008 88a2 52a1
00000020: d6a1 eb9d ec1e d196 b0a0 fa25 791a 9d24
00000030: 7224 f723 a421 81a2 a127 f2a6 5f20 919c
00000040: 7921 1a25 891a 22ab 6fa0 3ba7 309f e329
00000050: be26 2821 eea1 7324 06a3 35a8 67a4 2a18
00000060: 9117 0f29 3827 e929 bca5 b8a2 bbaa 8918
00000070: 16ac 8aa5 93a5 f4a4 c926 0727 2b26 8a24
00000080: e427 e820 6524 2c95 f428 dea0 41a3 0f23
00000090: 71a0 7e9b 0c1a 5820 77a1 0426 4f21 8294
000000a0: 8d9e cd95 6220 281d ab21 f11c c621 091c
000000b0: 009c 2099 9591 4324 a19d 37a1 4ea0 bd9f
000000c0: 1a20 4c95 5523 dc88 63a0 5321 a319 8e99
000000d0: d295 2024 aa9d 631c 2797 6418 c19d e01a
000000e0: b49f 40a2 601e 5324 c6a0 5b99 c41c 021c
000000f0: 9e9e 4f1c 0aa2 da23 65a0 649c 85a6 9023
00000100: df9b cf21 ec97 65a2 a81c d31b 7d9d 9d1d
00000110: cb9e 761c 31a1 64a4 681e d621 9627 b321
00000120: 0b28 5026 4e1a 871e e29a 81a3 5b24 69a6
00000130: 4caa aea4 39ab 829a 92a8 2da7 d49d e4a3
00000140: 1fa9 0da7 d2a9 b1a8 85a5 25a6 70a7 2593
00000150: 54a8 65a4 1c27 3d27 efa8 9021 88a6 7216
00000160: 0e19 3927 e3a9 be95 2021 e528 70a4 bc25
00000170: 1027 10a5 14ac 2ba7 069d cc1c d825 481b
00000180: 749f e2a4 1f29 9e28 fc90 ab1e 4ba3 3da4
00000190: e7a6 30a5 53a9 d304 bf27 41ab 69ab 57ab
000001a0: f3a6 c3a4 f722 5228 b528 6722 63ab 24a5
000001b0: c69e cda2 a327 8da6 ea1c 5c29 0e11 4928
000001c0: 241b cca8 d3a7 c3a9 ed24 8525 06a1 4ba5

arith.constant4 f2 [232, 128]
0.03162 -0.1276 -0.0953 -0.0257 0.007126 -0.1652 -0.0327 0.0661
-0.0878 0.00905 0.1192 -0.0154 -0.11945 -0.149 0.04642 0.03723
0.02556 -0.1226 -0.1372 -0.0554 -0.08826 -0.1375 -0.0423 0.0816
-0.1512 -0.1721 0.1045 0.1037 0.1633 0.0783 0.09045 0.129
0.0632 -0.01538 0.02974 -0.0674 0.1316 -0.043 0.007496 -0.02216
0.03983 -0.1011 0.0775 0.0955 0.0511 -0.08777 -0.05157 -0.04974
-0.1733 0.1307 -0.01965 -0.1843 -0.01064 -0.1948 0.0681 -0.0658
0.05453 0.095 -0.1711 -0.182 0.0323 0.11365 0.01 -0.2062
0.12 0.01065 -0.1627 -0.047 -0.1729 -0.127 0.001364 0.0641
0.01081 -0.0138 0.01768 0.165 -0.2131 0.1659 -0.1572 -0.0303
0.04776 0.06885 -0.04205 -0.1981 0.1134 -0.11957 0.03534 -0.07465
-0.1025 0.1091 0.1685 -0.1613 0.07733 0.0198 0.03967 0.08026
-0.1476 -0.01533 -0.0985 -0.1517 -0.02206 0.03345 -0.11163 0.08887
-0.2059 -0.06287 0.00465 0.0651 0.06824 -0.07477 -0.0771 -0.02745
-0.1294 0.0333 -0.02873 0.1057 -0.1731 -0.02274 -0.06616 -0.055
-0.04648 -0.0006576 -0.2106 -0.0321 0.03473 -0.1495 0.001972 -0.04007
0.1344 0.11334 -0.01475 0.1104 -0.01953 0.05606 -0.03314 0.05084
-0.05603 -0.1775 -0.1633 -0.1098 -0.001548 -0.1201 0.0822 0.00373
0.02563 0.1198 0.1056 0.03827 -0.2153 0.003698 -0.05368 -0.04248
0.05798 0.07965 -0.08405 -0.0944 0.01472 -0.00723 0.076 0.0561
-0.1633 0.09796 -0.04025 -0.1047 -0.0908 -0.0876 0.0761 0.1404
0.002546 0.0168 0.095 0.11755 0.1511 0.1458 -0.01816 -0.10864
0.1382 -0.02925 -0.1996 0.0637 -0.09576 -0.12225 -0.1248 -0.06018
-0.1462 0.03284 -0.0591 -0.05045 0.013 -0.1375 0.02725 0.05084
-0.07404 -0.1505 -0.11847 -0.02692 -0.0755 -0.07043 0.0933 -0.1425
-0.07117 -0.006924 -0.04037 -0.04065 -0.0396 0.1229 0.02626 0.01468
0.03226 -0.03214 0.004356 0.11975 0.05307 -0.1097 0.11633 0.031
0.02957 -0.0862 0.0433 0.0659 0.0469 -0.04742 -0.0839 0.0986
0.00538 0.0274 -0.06433 0.03308 -0.2028 -0.0561 0.00437 -0.08136
-0.02385 0.0759 -0.1033 -0.002466 -0.0855 0.074 0.00806 -0.06006
0.04785 -0.141 -0.2056 0.001188 0.0706 -0.1207 -0.2063 -0.06186
0.02444 -0.0953 0.159 -0.0345 -0.11163 0.1126 -0.0797 -0.1387
00000000: 0c28 15b0 19ae 94a6 4c1f 49b1 30a8 3b2c
00000010: 9fad a220 a12f e3a3 a5af c5b0 f129 c428
00000020: 8b26 d9af 64b0 17ab a6ad 66b0 6aa9 392d
00000030: d7b0 82b1 b02e a32e 3a31 032d ca2d 2130
00000040: 0b2c e0a3 9d27 50ac 3630 81a9 ad1f aca5
00000050: 1929 78ae f62c 1d2e 8a2a 9ead 9aaa 5eaa
00000060: 8cb1 2f30 08a5 e6b1 73a1 3cb2 5c2c 36ac
00000070: fb2a 142e 7ab1 d3b1 2228 462f 1f21 99b2
00000080: ae2f 7421 35b1 04aa 88b1 10b0 9615 1a2c
00000090: 8921 11a3 8724 4831 d2b2 4f31 08b1 c2a7
000000a0: 1d2a 682c 62a9 57b2 422f a7af 8628 c7ac
000000b0: 8fae fb2e 6431 29b1 f32c 1225 1429 232d
000000c0: b9b0 d9a3 4eae dbb0 a6a5 4828 25af b02d
000000d0: 97b2 06ac c31c 2b2c 5e2c c9ac efac 07a7
000000e0: 24b0 4328 5ba7 c42e 8ab1 d2a5 3cac 0aab
000000f0: f3a9 6391 bdb2 1ca8 7228 c9b0 0a18 21a9
00000100: 4d30 412f 8da3 112f 00a5 2d2b 3ea8 822a
00000110: 2cab aeb1 3ab1 07af 5796 b0af 432d a41b
00000120: 9026 ab2f c22e e628 e4b2 931b dfaa 70a9
00000130: 6c2b 192d 61ad 0bae 8923 679f dd2c 2e2b
00000140: 3ab1 452e 27a9 b3ae d0ad 9bad df2c 7e30
00000150: 3719 4d24 142e 862f d630 aa30 a6a4 f4ae
00000160: 6c30 7da7 63b2 142c 21ae d3af fdaf b4ab
00000170: aeb0 3428 91ab 75aa a822 66b0 fa26 822a
00000180: bdac d1b0 95af e4a6 d5ac 82ac f92d 8fb0
00000190: 8eac 179f 2ba9 34a9 12a9 de2f b926 8423
000001a0: 2128 1da8 761c aa2f cb2a 05af 722f f027
000001b0: 9227 84ad 8b29 382c 012a 12aa 5fad 4f2e
000001c0: 821d 0427 1eac 3c28 7db2 2eab 7a1c 35ad
000001d0: 1ba6 dc2c 9cae 0d99 79ad bc2c 2020 b0ab
000001e0: 202a 83b0 94b2 de14 852c baaf 9ab2 ebab
000001f0: 4226 19ae 1731 6aa8 25af 352f 1aad 70b0

arith.constant5 f2 [64, 1, 1, 32]
-0.1663 -0.05927 -0.007446 -0.02745 -0.1494 0.2812 0.5146 0.1237
0.1114 -0.319 -0.008835 -0.1656 0.3335 0.3208 0.262 -0.1261
0.1621 0.2491 0.08966 0.1361 -0.3567 -0.10547 -0.2494 0.1898
-0.1462 -0.1561 -0.2148 0.3237 0.485 -0.068 0.2025 -0.235
0.1947 -0.138 0.0797 -0.1118 0.218 0.3464 -0.2335 -0.154
-0.4846 -0.25 -0.1163 0.0542 0.08984 0.0893 -0.1296 0.358
0.0662 -0.1703 0.3079 -0.26 0.1658 0.1428 0.1384 0.1599
-0.5483 0.02045 -0.341 0.03806 0.314 0.3418 0.296 0.1719
0.02408 -0.621 -0.3542 -0.532 -0.3215 0.0286 0.2303 0.2439
-0.076 0.2277 -0.4165 -0.04858 -0.2627 -0.3135 0.1688 -0.2352
0.0645 0.1827 0.09174 -0.1042 0.0918 -0.3997 -0.4644 -0.1279
0.1266 0.616 -0.06223 0.1879 0.011185 0.1718 -0.4666 -0.4873
-0.3296 0.134 -0.253 -0.2302 -0.2505 -0.1079 0.5117 0.05896
0.12134 -0.4707 0.4832 -0.3806 0.1169 0.03854 0.1423 -0.1698
-0.4827 -0.1656 -0.1316 -0.09814 -0.2384 -0.1895 0.01616 0.309
0.396 -0.52 -0.1467 -0.1296 -0.1436 -0.2559 0.3523 0.1018
0.2201 -0.02081 0.3462 0.2306 0.03378 -0.3188 0.0675 -0.07635
0.1895 -0.2563 0.106 0.468 0.02126 -0.4224 0.1387 0.3215
-0.1455 0.2903 -0.1329 -0.2251 -0.2455 0.2788 -0.276 0.3416
0.0629 -0.1859 0.00734 -0.231 0.093 -0.2147 0.5146 0.3042
-0.2993 0.2188 -0.00835 -0.04907 -0.2795 0.158 -0.1632 -0.0001658
0.5063 -0.3386 0.2145 -0.2473 -0.4604 0.1875 -0.4958 -0.255
0.2935 0.2725 0.032 0.3684 -0.08887 0.288 0.265 -0.101
0.04153 -0.0948 -0.2471 0.08185 -0.2444 -0.1865 -0.2703 0.4094
-0.148 -0.1026 0.2357 0.01962 0.1881 -0.5435 -0.376 0.697
0.3909 0.213 0.2888 0.03122 -0.3152 -0.1324 0.5327 0.004898
0.1895 -0.0418 -0.226 0.3132 -0.2201 -0.4546 0.569 -0.1633
0.1532 0.1946 -0.1276 -0.2778 0.4402 0.1675 0.1316 -0.2354
-0.1212 -0.03586 0.2505 -0.4573 -0.2976 0.15 -0.05975 -0.01637
0.5146 0.584 -0.3452 0.002682 -0.283 -0.4844 0.1604 -0.58
0.1082 -0.7163 -0.01416 0.4167 -0.4417 0.49 0.362 0.5576
0.1534 0.008316 0.05762 0.247 -0.3066 -0.08484 0.2142 0.02455
00000000: 52b1 96ab a09f 07a7 c8b0 8034 1e38 eb2f
00000010: 212f 1bb5 86a0 4db1 5635 2235 3134 09b0
00000020: 3031 f933 bd2d 5b30 b5b5 c0ae fbb3 1332
00000030: aeb0 ffb0 e0b2 2e35 c337 5aac 7b32 85b3
00000040: 3b32 6ab0 1a2d 28af fa32 8b35 79b3 eeb0
00000050: c1b7 00b4 71af f02a c02d b72d 26b0 ba35
00000060: 3d2c 73b1 ed34 29b4 4e31 9230 6e30 1e31
00000070: 63b8 3c25 75b5 df28 0635 7835 bc34 8031
00000080: 2a26 f8b8 abb5 42b8 25b5 5227 5f33 ce33
00000090: ddac 4933 aab6 38aa 34b4 04b5 6731 87b3
000000a0: 212c d931 df2d abae e02d 65b6 6eb7 18b0
000000b0: 0d30 ee38 f7ab 0332 ba21 7f31 77b7 ccb7
000000c0: 46b5 4a30 0cb4 5eb3 02b4 e8ae 1838 8c2b
000000d0: c42f 88b7 bb37 17b6 7b2f ef28 8e30 6fb1
000000e0: b9b7 4db1 36b0 48ae a1b3 10b2 2324 f234
000000f0: 5636 29b8 b2b0 26b0 98b0 18b4 a335 842e
00000100: 0b33 54a5 8a35 6133 5328 1ab5 522c e3ac
00000110: 1032 1ab4 c92e 7d37 7125 c2b6 7030 2535
00000120: a8b0 a534 41b0 34b3 dbb3 7634 6ab4 7735
00000130: 072c f3b1 841f 64b3 f42d dfb2 1e38 de34
00000140: cab4 0033 46a0 48aa 79b4 0e31 39b1 6f89
00000150: 0d38 6bb5 dd32 eab3 5eb7 0032 efb7 14b4
00000160: b234 5c34 1928 e535 b0ad 9c34 3d34 77ae
00000170: 5129 11ae e8b3 3d2d d2b3 f8b1 53b4 8d36
00000180: bcb0 91ae 8b33 0625 0532 59b8 04b6 9339
00000190: 4136 d132 9f34 fe27 0bb5 3db0 4338 041d
000001a0: 1032 5aa9 3bb3 0335 0bb3 46b7 8d38 3ab1
000001b0: e730 3a32 15b0 72b4 0b37 5c31 3630 88b3
000001c0: c2af 97a8 0234 51b7 c3b4 cd30 a6ab 31a4
000001d0: 1e38 ac38 86b5 7e19 87b4 c0b7 2231 a4b8
000001e0: ed2e bbb9 40a3 ab36 11b7 d737 cb35 7638
000001f0: e930 4220 602b e733 e8b4 6ead db32 4926

arith.constant6 f2 [64, 1, 1, 64]
-0.1393 0.207 0.02136 0.1666 0.1315 0.0981 0.0367 0.1855
-0.0129 0.1216 0.5015 0.2844 -0.059 -0.2593 0.2925 0.1066
0.2937 0.09515 0.01862 -0.0975 -0.197 0.1354 0.1873 -0.181
0.1042 -0.1713 -0.004555 0.1904 0.2322 -0.05045 0.04675 -0.1224
0.08954 -0.03696 0.0852 0.148 -0.3347 0.3345 -0.1538 0.0916
0.1086 0.0713 -0.09564 -0.0003028 0.2117 -0.0228 0.03357 0.1931
-0.07465 -0.1531 -0.0256 -0.2612 -0.3281 -0.166 0.02971 0.07935
-0.3328 0.1567 -0.2065 -0.2974 0.1508 -0.3625 0.0494 0.1265
-0.2593 0.2223 0.2334 0.1442 0.2666 -0.1087 0.1254 0.1173
-0.1898 0.1923 -0.314 -0.05814 -0.288 -0.0818 -0.2808 0.2627
0.2448 0.188 0.05453 -0.215 -0.1293 -0.246 0.05957 -0.2162
0.3179 -0.01926 -0.1134 -0.2186 0.03778 0.0048 0.2362 0.1841
0.2622 -0.0483 0.0823 0.2162 -0.1749 0.1685 -0.1186 0.05984
0.2986 0.1389 -0.02197 0.2145 -0.2389 0.2434 0.217 0.1251
-0.10223 -0.084 -0.1302 -0.1207 0.01804 0.2803 0.0243 -0.09064
0.02632 -0.233 -0.04388 -0.10126 -0.0799 0.2952 -0.289 0.05194
0.136 0.03012 -0.376 0.05783 -0.4216 0.12476 -0.2283 0.04605
0.239 0.1844 -0.217 -0.1333 0.06076 -0.2277 0.2605 0.238
-0.03033 0.05072 -0.2411 -0.08075 0.01697 0.09546 0.2384 0.2019
-0.3796 -0.43 0.11743 -0.06216 0.21 -0.2961 -0.3872 0.1096
0.2386 -0.011894 0.0684 -0.1373 -0.2603 0.1796 0.0318 0.2499
-0.2627 0.289 -0.2184 0.03583 -0.299 0.21 0.01308 -0.2263
0.1718 -0.1522 -0.1967 -0.1342 0.001571 0.274 -0.1528 0.06085
0.02414 0.03041 -0.1843 -0.2266 -0.03763 0.1688 0.2223 0.2192
0.07025 -0.1592 -0.09076 0.474 0.3271 -0.2537 -0.003115 -0.1166
-0.3342 0.3796 -0.2798 -0.2769 -0.4104 0.2969 -0.4172 0.3025
-0.0659 -0.106 0.008446 -0.304 -0.0365 -0.00717 -0.2332 -0.1599
-0.3018 -0.0772 0.2499 -0.063 0.2668 -0.3494 0.2869 0.2463
0.2496 0.0962 -0.03217 -0.2678 0.2603 -0.01834 0.3381 -0.0798
-0.07434 0.233 0.1672 -0.05316 0.1004 -0.262 0.3086 -0.174
0.1715 0.2291 0.1815 -0.4045 -0.3982 -0.03093 -0.01435 -0.06964
-0.283 0.05624 0.02536 -0.1106 -0.00906 -0.439 0.267 0.2439
00000000: 75b0 a032 7825 5531 3530 472e b328 f031
00000010: 9ba2 c82f 0338 8d34 8dab 26b4 ae34 d32e
00000020: b334 172e c424 3dae 4eb2 5530 fe31 cbb1
00000030: ab2e 7bb1 aa9c 1832 6e33 75aa fc29 d5af
00000040: bb2d bba8 742d bc30 5bb5 5a35 ecb0 dd2d
00000050: f32e 902c 1fae f68c c632 d6a5 4c28 2e32
00000060: c7ac e6b0 8ea6 2eb4 40b5 50b1 9b27 142d
00000070: 53b5 0431 9cb2 c2b4 d330 cdb5 532a 0c30
00000080: 26b4 1d33 7833 9d30 4434 f5ae 0330 822f
00000090: 13b2 2732 06b5 71ab 9cb4 3cad 7eb4 3434
000000a0: d533 0432 fb2a e1b2 23b0 dfb3 a02b ebb2
000000b0: 1635 eea4 42af ffb2 d628 ea1c 8f33 e431
000000c0: 3234 2faa 442d eb32 99b1 6431 97af a92b
000000d0: c734 7230 a0a5 dd32 a5b3 ca33 f232 0130
000000e0: 8bae 60ad 2bb0 baaf 9e24 7c34 3926 cdad
000000f0: bd26 75b3 9ea9 7bae 1dad b934 a0b4 a62a
00000100: 5a30 b627 04b6 672b bfb6 fc2f 4eb3 e529
00000110: a633 e731 f2b2 44b0 c72b 49b3 2b34 9e33
00000120: c4a7 7e2a b7b3 2bad 5824 1c2e a133 7632
00000130: 13b6 e1b6 842f f5ab b832 bdb4 32b6 042f
00000140: a333 17a2 612c 65b0 2ab4 bf31 1228 ff33
00000150: 34b4 a034 fdb2 9628 c9b4 b832 b222 3eb3
00000160: 7f31 dfb0 4bb2 4bb0 6f16 6234 e4b0 ca2b
00000170: 2e26 c927 e6b1 40b3 d1a8 6731 1d33 0433
00000180: 7f2c 18b1 cfad 9637 3c35 0fb4 619a 76af
00000190: 59b5 1336 7ab4 6eb4 91b6 c034 adb6 d734
000001a0: 38ac c9ae 5320 ddb4 aca8 589f 76b3 1eb1
000001b0: d4b4 f1ac ff33 08ac 4534 97b5 9734 e233
000001c0: fd33 282e 1ea8 49b4 2a34 b2a4 6935 1bad
000001d0: c2ac 7533 5a31 ceaa 6d2e 31b4 f034 91b1
000001e0: 7d31 5533 cf31 79b6 5fb6 eba7 59a3 75ac
000001f0: 87b4 332b 7e26 14af a4a0 06b7 4634 ce33

arith.constant7 f2 [96, 1, 1, 64]
-0.1041 -0.1238 0.1261 -0.01973 0.06152 0.2888 0.0212 -0.1106
0.1561 0.0817 -0.02055 -0.06866 0.0979 -0.11523 0.0847 0.03564
-0.1439 0.0908 -0.00231 0.151 -0.01964 0.1013 0.1895 -0.08215
0.12225 -0.02367 -0.1023 0.07385 -0.07166 0.0665 -0.03568 0.0752
-0.1602 -0.07385 0.173 -0.009445 0.1558 0.0255 0.0606 0.208
0.1098 0.01405 -0.0683 0.1345 -0.06216 -0.01868 0.1829 -0.003874
-0.0376 0.05295 0.08484 0.05325 0.04053 -0.04663 -0.01504 -0.1475
-0.1411 0.095 -0.0474 -0.1217 -0.1979 0.02441 -0.1433 0.4482
0.2148 0.1129 0.2059 -0.1677 0.01741 0.03738 0.2186 -0.07996
0.1969 -0.1537 -0.1255 0.09314 0.207 0.007626 -0.02904 0.0813
-0.1416 0.1458 -0.1406 0.0872 -0.11304 -0.0692 -0.0928 -0.01872
0.1725 0.002575 -0.0414 0.0981 0.00407 0.1976 -0.0298 0.1389
0.1296 0.02055 0.2042 -0.1472 -0.10114 -0.0175 -0.1075 -0.0784
0.0973 -0.03363 0.0641 -0.1362 0.1704 -0.1724 0.00642 0.1315
0.129 0.04504 0.1816 0.2246 -0.144 -0.0844 0.2686 0.0405
0.1764 0.1141 0.1775 0.3486 0.01794 0.03998 -0.2128 0.1514
-0.0757 0.1415 0.02448 0.03093 -0.2166 0.2856 0.0623 0.241
-0.01534 0.09735 0.01846 -0.08813 -0.2808 0.2534 -0.2644 0.1539
-0.0248 0.2266 0.06433 -0.1368 0.4326 0.2678 -0.0679 -0.0952
0.05527 -0.2081 -0.1 0.03845 0.0735 0.1962 0.3135 0.10095
-0.2112 0.2847 0.002823 -0.1346 -0.184 -0.4087 -0.0994 -0.2551
0.1746 0.06726 -0.2195 -0.0812 -0.09875 -0.04688 0.04584 0.3892
0.0457 -0.0785 -0.0901 0.1716 -0.11194 0.05765 -0.219 -0.1361
-0.03247 -0.11743 0.1119 0.287 -0.1672 0.07 -0.0374 0.2769
-0.03476 -0.0599 0.1285 -0.1288 -0.06995 -0.118 -0.05817 0.2812
-0.2455 0.1569 -0.1892 0.001064 0.05527 0.003868 -0.06094 -0.2117
-0.0913 -0.2074 -0.10675 -0.07635 -0.1519 -0.3706 0.416 0.2195
0.004906 0.003876 0.132 -0.114 -0.05704 -0.2406 0.3088 0.1667
0.1426 0.2478 0.0404 -0.04758 0.0683 -0.1313 0.0433 0.00874
-0.0342 0.0428 -0.04044 0.001062 0.1691 -0.0834 -0.2496 -0.1642
0.1812 0.1737 -0.1658 -0.01518 -0.08887 -0.139 0.004257 -0.0458
0.296 -0.01239 -0.07526 -0.291 0.1333 0.02597 -0.1235 0.06174
00000000: aaae ecaf 0930 0da5 e02b 9f34 6d25 14af
00000010: ff30 3b2d 43a5 65ac 442e 60af 6c2d 9028
00000020: 9bb0 d02d bb98 d530 07a5 7c2e 1032 42ad
00000030: d32f 0fa6 8cae ba2c 96ac 422c 91a8 d02c
00000040: 20b1 baac 8931 d6a0 fc30 8726 c22b a832
00000050: 072f 3223 5fac 4e30 f5ab c8a4 da31 ef9b
00000060: d0a8 c72a 6e2d d12a 3029 f8a9 b3a3 b8b0
00000070: 84b0 142e 11aa caaf 55b2 4026 96b0 2c37
00000080: e032 3a2f 9732 5eb1 7524 c928 ff32 1ead
00000090: 4d32 ebb0 04b0 f62d a032 cf1f 6fa7 342d
000000a0: 88b0 aa30 80b0 952d 3caf 6eac f0ad cba4
000000b0: 8531 4619 4da9 472e 2b1c 5332 a1a7 7230
000000c0: 2630 4325 8932 b6b0 79ae 7ba4 e1ae 05ad
000000d0: 3a2e 4ea8 1a2c 5cb0 7431 84b1 931e 3530
000000e0: 2130 c429 d031 3033 9cb0 67ad 4c34 2f29
000000f0: a531 4d2f ae31 9435 9824 1e29 cfb2 d830
00000100: d8ac 8730 4426 eb27 eeb2 9234 f92b b633
00000110: dba3 3b2e ba24 a4ad 7eb4 0e34 3bb4 ed30
00000120: 59a6 4033 1e2c 61b0 ec36 4934 58ac 18ae
00000130: 132b a9b2 66ae ec28 b42c 4732 0435 762e
00000140: c2b2 8e34 c819 4fb0 e3b1 8ab6 5dae 15b4
00000150: 9631 4e2c 06b3 32ad 52ae 00aa de29 3a36
00000160: d929 06ad c4ad 7e31 2aaf 612b 02b3 5bb0
00000170: 28a8 84af 292f 9834 5ab1 7b2c caa8 6e34
00000180: 73a8 abab 1d30 1fb0 7aac 8daf 72ab 8034
00000190: dbb3 0531 0eb2 5c14 132b ec1b cdab c6b2
000001a0: d8ad a3b2 d5ae e3ac dcb0 eeb5 a836 0633
000001b0: 061d f01b 3930 4caf 4dab b3b3 f134 5631
000001c0: 9030 ee33 2c29 17aa 5f2c 34b0 8b29 7a20
000001d0: 61a8 7a29 2da9 5a14 6931 56ad fdb3 41b1
000001e0: cc31 8f31 4eb1 c6a3 b0ad 73b0 5c1c dda9
000001f0: bc34 58a2 d1ac a8b4 4430 a626 e7af e72b

arith.constant8 f2 [128, 1, 1, 96]
-0.155 -0.02676 -0.1177 -0.1318 -0.2625 0.0908 0.1799 -0.01869
0.011826 0.05978 -0.076 -0.058 -0.1545 -0.1572 -0.1346 0.12445
-0.1925 0.2396 -0.01965 -0.11115 0.1263 -0.0662 0.10785 0.1619
0.06168 0.2053 -0.2235 -0.06445 0.02576 -0.0663 -0.1658 -0.0572
-0.03513 0.06604 0.131 -0.009056 -0.01204 0.2343 -0.1344 0.1592
0.2778 0.006462 0.3025 -0.1077 0.03662 -0.02138 -0.06177 -0.1697
0.2703 0.09393 -0.2498 -0.02943 0.18 -0.1438 0.01084 -0.03102
0.08594 0.03107 0.2225 0.06976 -0.1868 -0.1055 0.03293 0.127
0.09845 -0.11554 -0.1149 -0.1142 -0.02 -0.02635 -0.03732 0.1519
0.1538 -0.1472 0.09705 0.165 0.1519 0.1271 0.2532 -0.02368
-0.04456 -0.06464 -0.0745 0.2216 -0.229 0.013245 0.2247 -0.1159
-0.0555 0.0704 -0.1775 -0.06586 -0.1376 0.1798 -0.2323 -0.06177
0.075 -0.1929 0.1277 -0.268 -0.0829 0.1947 0.007133 0.1842
0.05826 -0.135 0.3596 -0.0841 -0.0424 -0.1766 0.284 0.2303
-0.02919 0.2303 0.2207 -0.1265 -0.283 0.0006213 -0.0699 0.1183
-0.1765 -0.5283 -0.2737 0.05292 0.01581 0.1381 -0.07587 -0.0978
0.3252 -0.3452 0.01045 -0.1675 0.3147 0.326 -0.1588 -0.04562
-0.0624 0.0956 0.3591 -0.2118 -0.003836 0.1407 -0.0931 -0.0886
0.2465 -0.0845 0.1932 -0.3723 0.409 0.12494 0.3083 0.10254
0.07007 -0.1368 0.0842 0.3254 -0.1521 0.1754 -0.2422 -0.02571
0.1478 -0.2832 -0.315 -0.10767 -0.11487 0.3064 0.013885 0.255
0.546 0.004368 0.007442 -0.3918 0.1812 0.1614 -0.252 0.0792
-0.1449 0.0591 0.3696 -0.0884 -0.299 -0.1931 0.03357 0.3213
-0.2065 -0.0727 -0.12305 -0.1103 -0.1065 0.1008 0.01214 -0.1478
-0.08 -0.1566 -0.05258 0.02356 -0.232 -0.2408 -0.185 -0.01904
0.2227 0.1114 -0.1549 0.0959 -0.1233 0.2277 -0.1211 -0.0702
-0.05978 0.01172 -0.16 0.2441 0.1873 -0.1704 -0.0935 0.501
0.05826 0.08575 -0.1405 -0.02321 0.1959 0.165 0.10706 0.0629
-0.1837 -0.1714 -0.05923 0.2502 0.349 -0.02322 0.185 -0.1193
-0.2157 -0.04153 -0.1192 0.2563 -0.05264 0.2261 0.2358 -0.1393
0.387 -0.1926 -0.013176 0.12317 -0.00954 -0.1866 0.1093 -0.03928
0.2957 -0.08 0.06836 -0.01371 -0.03372 -0.2158 -0.04556 0.01576
00000000: f6b0 daa6 88af 38b0 33b4 d02d c231 c9a4
00000010: 0e22 a72b ddac 6dab f2b0 08b1 4fb0 f72f
00000020: 29b2 ab33 08a5 1daf 0b30 3dac e72e 2e31
00000030: e52b 9232 27b3 20ac 9826 3eac 4eb1 52ab
00000040: 7fa8 3a2c 3130 a3a0 2aa2 7f33 4db0 1831
00000050: 7234 9e1e d734 e5ae b028 79a5 e8ab 6eb1
00000060: 5334 032e feb3 89a7 c331 9ab0 8d21 f1a7
00000070: 802d f427 1f33 772c fab1 c1ae 3728 1030
00000080: 4d2e 65af 5baf 4faf 1fa5 bfa6 c7a8 dc30
00000090: ec30 b6b0 362e 4831 dc30 1130 0d34 10a6
000000a0: b4a9 23ac c5ac 1733 54b3 c822 3133 6baf
000000b0: 1bab 812c aeb1 37ac 67b0 c131 6fb3 e8ab
000000c0: cd2c 2cb2 1630 4ab4 4ead 3b32 4e1f e531
000000d0: 752b 52b0 c135 62ad 6da9 a7b1 8b34 5f33
000000e0: 79a7 5f33 1033 0cb0 87b4 1711 79ac 922f
000000f0: a6b1 3ab8 61b4 c62a 0c24 6b30 dbac 42ae
00000100: 3435 86b5 5a21 5cb1 0935 3735 15b1 d7a9
00000110: fdab 1e2e bf35 c7b2 db9b 8130 f5ad acad
00000120: e333 68ad 2f32 f5b5 8b36 ff2f ef34 902e
00000130: 7c2c 61b0 642d 3535 deb0 9d31 c0b3 95a6
00000140: bb30 88b4 0ab5 e4ae 5aaf e734 1c23 1434
00000150: 5e38 791c 9f1f 45b6 cc31 2a31 08b4 122d
00000160: a3b0 912b ea35 a8ad c9b4 2eb2 4c28 2435
00000170: 9cb2 a7ac e0af 0faf d1ae 742e 3722 bbb0
00000180: 1fad 03b1 bbaa 0826 6db3 b5b3 ecb1 e0a4
00000190: 2033 212f f5b0 232e e4af 4933 c0af 7eac
000001a0: a7ab 0022 1fb1 d033 fe31 74b1 fcad 0238
000001b0: 752b 7d2d 7fb0 f1a5 4532 4831 da2e 072c
000001c0: e1b1 7cb1 95ab 0134 9635 f2a5 ec31 a3af
000001d0: e7b2 51a9 a1af 1a34 bdaa 3c33 8c33 75b0
000001e0: 3136 2ab2 bfa2 e22f e2a0 f9b1 ff2e 07a9
000001f0: bb34 1fad 602c 05a3 51a8 e8b2 d5a9 0924

arith.constant9 f2 [1, 3, 3, 32]
-0.3994 0.5933 0.625 -0.6426 -0.1636 0.7295 0.10547 -0.797
0.53 0.1688 0.649 0.1366 0.918 -0.7983 0.1847 -0.6543
1.076 -0.2537 -0.05936 0.9004 -0.5654 1.289 0.5967 -0.4934
-0.06198 0.532 0.11285 0.3733 0.2262 1.379 0.2788 -0.5977
-0.821 -0.428 0.251 -0.1914 -0.4258 0.558 -0.4397 -0.2412
0.4136 -0.2074 -0.3594 0.5166 -0.3918 0.4302 0.646 0.6665
0.6104 -0.806 1.011 -0.3313 1.429 0.369 -0.4548 -0.0215
0.2008 0.874 0.4763 -0.2764 0.6084 -0.1825 0.7188 0.3577
-0.4275 0.7656 0.943 0.4697 0.5283 1.236 0.3103 -0.1199
0.736 0.5415 -0.09436 -0.201 0.2847 -0.6987 0.2139 0.08606
-0.614 -0.4507 0.2861 0.8984 -0.965 -0.3154 -0.91 -1.039
0.528 -0.2173 0.1333 -0.272 0.06082 0.2126 -0.4312 -0.4429
0.61 -0.5586 -0.1376 0.2167 -0.9062 0.1337 0.3655 -0.2644
0.2537 -0.4707 0.5396 0.776 -0.1242 -0.801 -0.4316 -0.1132
-0.00849 -0.6606 -0.4822 0.6626 -1.347 0.1687 -0.5444 -0.7847
0.2118 0.7837 0.72 0.4849 0.3796 0.614 0.2495 -0.6367
0.586 0.0475 -0.4155 0.6562 -0.7466 0.04114 -0.4197 -0.03183
0.0791 -0.0123 -0.1119 0.4849 -0.793 1.011 0.4697 0.1514
-0.2874 -0.1642 0.62 0.0423 -0.7397 -0.5845 0.4763 -0.2122
-1.033 -0.11505 0.1083 0.1295 0.10156 -0.409 0.06018 0.1644
-1.009 0.1587 0.4258 0.4546 0.783 0.406 0.5146 0.06665
0.7554 0.7666 0.3252 -0.424 0.3843 0.3865 0.4355 0.4607
-0.2363 -0.153 0.649 0.3909 0.2583 0.3816 -0.743 -0.813
0.789 0.481 -0.61 -0.09143 0.2418 -0.6074 0.802 0.1311
0.8203 -0.5737 -0.001822 -0.007053 0.2644 -0.4773 -0.7324 -0.622
0.1481 -0.1567 -0.2098 0.5244 -0.599 0.916 -0.1943 -1.133
0.3074 -0.3955 -0.0867 -0.05014 0.714 0.1321 -0.1049 0.5576
0.2776 -0.425 0.593 0.993 1.241 0.0903 0.4858 -0.233
-0.4277 0.8506 0.306 -0.366 -0.2445 -0.3052 0.9126 -0.4553
-0.3752 0.602 -0.2444 -0.4797 0.3489 -0.1292 0.4907 -0.3364
-0.03726 0.1348 -0.62 0.419 -0.5933 -0.6113 -0.04785 0.9565
-0.6704 0.8633 0.4578 0.0848 0.6597 0.6826 -0.0557 -0.76
00000000: 64b6 bf38 0039 24b9 3cb1 d639 c02e 60ba
00000010: 3d38 6731 3139 5f30 583b 63ba e931 3cb9
00000020: 4e3c 0fb4 99ab 343b 86b8 283d c638 e5b7
00000030: efab 4238 392f f935 3d33 843d 7634 c8b8
00000040: 91ba d9b6 0434 20b2 d0b6 7738 09b7 b8b3
00000050: 9e36 a3b2 c0b5 2238 45b6 e236 2b39 5539
00000060: e238 73ba 0b3c 4db5 b73d e735 47b7 81a5
00000070: 6d32 fe3a 9f37 6cb4 de38 d7b1 c039 b935
00000080: d7b6 203a 8b3b 8437 3a38 f23c f734 acaf
00000090: e339 5538 0aae 6fb2 8e34 97b9 d832 822d
000000a0: e9b8 36b7 9434 303b b8bb 0cb5 48bb 28bc
000000b0: 3938 f4b2 4430 5ab4 c92b ce32 e6b6 16b7
000000c0: e138 78b8 67b0 ef32 40bb 4730 d935 3bb4
000000d0: 0f34 88b7 5138 353a f3af 68ba e8b6 3faf
000000e0: 59a0 49b9 b7b7 4d39 63bd 6631 5bb8 47ba
000000f0: c732 453a c339 c237 1336 e938 fc33 18b9
00000100: b038 142a a6b6 4039 f9b9 4429 b7b6 13a8
00000110: 102d 4ca2 29af c237 58ba 0b3c 8437 d830
00000120: 99b4 41b1 f638 6a29 ebb9 adb8 9f37 cab2
00000130: 22bc 5daf ee2e 2530 802e 8bb6 b42b 4331
00000140: 09bc 1431 d036 4637 443a 7f36 1e38 442c
00000150: 0b3a 223a 3435 c9b6 2636 2f36 f836 5f37
00000160: 90b3 e5b0 3139 4136 2234 1b36 f2b9 81ba
00000170: 503a b237 e1b8 daad bd33 dcb8 6a3a 3230
00000180: 903a 97b8 7797 399f 3b34 a3b7 dcb9 fab8
00000190: bd30 04b1 b7b2 3238 cbb8 543b 38b2 88bc
000001a0: eb34 54b6 8cad 6baa b639 3a30 b7ae 7638
000001b0: 7134 cdb6 be38 f23b f73c c72d c637 75b3
000001c0: d8b6 ce3a e534 dbb5 d3b3 e2b4 4d3b 49b7
000001d0: 01b6 d138 d2b3 adb7 9535 22b0 da37 62b5
000001e0: c5a8 5030 f6b8 b436 bfb8 e4b8 20aa a73b
000001f0: 5db9 e83a 5337 6d2d 4739 7639 21ab 14ba

arith.constant10 f2 [1, 3, 3, 64]
-0.687 0.6743 0.3823 -0.8535 0.4885 0.3542 0.987 0.4102
0.819 -0.5005 -0.4192 -0.546 -0.1191 0.3489 0.0748 -0.6357
-0.668 1.029 -0.5063 -0.643 0.4934 -0.447 -0.268 0.3894
0.4622 -0.305 0.2856 0.3484 0.4744 0.564 -0.374 0.1497
0.6914 -0.5537 1.175 0.03078 0.11316 -0.1598 0.537 0.742
-0.8135 -0.0692 0.6226 -0.351 -0.5674 -0.429 0.729 -1.138
-0.9536 0.04465 -0.09973 -0.288 0.897 0.7676 0.6396 -1.043
-0.5347 0.4172 0.2993 -0.5073 0.4297 -0.545 -0.3997 -0.1592
0.3467 0.4792 0.11804 0.738 0.8057 0.745 0.06805 0.5703
0.1897 -0.227 0.02557 -0.336 -0.8555 -0.03494 -0.4043 -0.158
-0.128 0.96 -0.5327 -0.7925 0.4229 0.3528 -0.4546 -0.1951
0.185 -0.05957 0.513 -0.1357 0.5356 0.09015 -0.1537 0.1296
-0.5625 -0.552 0.2947 0.663 0.1671 -0.7207 0.08844 -0.532
-0.319 0.2612 -0.09503 -0.7793 0.352 0.0678 0.3945 -0.688
-0.591 -0.2339 -0.5312 -0.00978 0.3904 0.0866 -0.263 0.4287
0.474 -0.0796 0.2415 -0.0134 0.07904 -0.3706 -0.2388 -0.2622
-0.363 0.511 -0.6562 -0.3696 0.194 0.08344 0.1309 0.7515
0.3384 -0.243 0.6177 0.009026 0.537 1.011 -0.4924 -0.3923
-0.267 0.007698 -0.3608 -0.1653 -0.3298 -0.2095 -0.753 -0.6987
0.459 -0.1785 0.1416 0.6553 0.351 -0.04565 -0.3955 0.5137
0.4365 -0.416 0.2588 0.35 0.595 -0.223 0.134 -0.4502
-0.1137 -0.269 0.1852 -0.05582 0.5645 0.02284 -0.039 0.87
-0.1318 0.151 0.185 -0.1423 -0.2427 0.621 -0.643 0.3103
-1.016 0.507 0.7207 0.5083 0.851 0.004406 0.01522 0.48
-0.4114 -0.1682 0.6597 -0.2051 -0.3901 -0.292 0.554 0.576
0.2842 -0.604 -0.5024 -0.38 -0.3345 0.03958 0.8193 0.3364
-0.3599 0.0738 -0.1444 -0.938 0.6445 -0.6357 -0.456 0.04947
0.3235 -1.138 0.5444 0.2073 0.7188 0.2878 -0.7324 0.4011
0.2678 -0.4146 0.1497 0.1295 0.3118 -0.1531 0.3853 0.6255
-0.948 -0.4192 0.3008 0.2081 -0.3518 0.2081 0.1741 -0.0405
-0.4568 -0.468 -0.4226 -0.575 0.3542 -0.006725 0.5396 0.1058
-0.1526 -0.1611 0.319 0.01843 0.5337 -0.614 -0.3635 -0.0789
00000000: 7fb9 6539 1e36 d4ba d137 ab35 e53b 9036
00000010: 8d3a 01b8 b5b6 5eb8 9faf 9535 ca2c 16b9
00000020: 58b9 1e3c 0db8 25b9 e537 27b7 4ab4 3b36
00000030: 6537 e1b4 9234 9335 9737 8338 fcb5 ca30
00000040: 8839 6eb8 b33c e127 3e2f 1db1 4c38 f039
00000050: 82ba 6eac fb38 9eb5 8ab8 ddb6 d539 8dbc
00000060: a1bb b729 62ae 9cb4 2d3b 243a 1e39 2cbc
00000070: 47b8 ad36 ca34 0fb8 e036 5cb8 65b6 18b1
00000080: 8c35 ab37 8e2f e739 723a f639 5b2c 9038
00000090: 1232 44b3 8c26 60b5 d8ba 79a8 78b6 0eb1
000000a0: 19b0 ae3b 43b8 57ba c436 a535 46b7 3eb2
000000b0: ec31 a0ab 1b38 58b0 4938 c52d ebb0 2630
000000c0: 80b8 6ab8 b734 4e39 5931 c4b9 a92d 42b8
000000d0: 1bb5 2e34 15ae 3cba a235 572c 5036 81b9
000000e0: bab8 7cb3 40b8 02a1 3f36 8b2d 35b4 dc36
000000f0: 9637 18ad ba33 dca2 0f2d eeb5 a4b3 32b4
00000100: cfb5 1738 40b9 eab5 3532 572d 3030 033a
00000110: 6a35 c7b3 f138 9f20 4c38 0b3c e1b7 47b6
00000120: 46b4 e21f c6b5 4ab1 47b5 b4b2 06ba 97b9
00000130: 5837 b6b1 8830 3e39 9e35 d8a9 54b6 1c38
00000140: fc36 a8b6 2434 9a35 c338 23b3 4a30 34b7
00000150: 47af 4eb4 ed31 25ab 8438 d925 fea8 f63a
00000160: 38b0 d530 ec31 8eb0 c4b3 f838 25b9 f734
00000170: 10bc 0e38 c439 1138 cf3a 831c cb23 ae37
00000180: 95b6 62b1 4739 90b2 3eb6 acb4 6f38 9c38
00000190: 8c34 d5b8 05b8 14b6 5ab5 1129 8e3a 6235
000001a0: c2b5 b92c 9fb0 81bb 2839 16b9 4cb7 552a
000001b0: 2d35 8dbc 5b38 a232 c039 9b34 dcb9 6b36
000001c0: 4934 a2b6 ca30 2530 fd34 e6b0 2a36 0139
000001d0: 96bb b5b6 d034 a932 a1b5 a932 9231 2fa9
000001e0: 4fb7 7db7 c3b6 9ab8 ab35 e39e 5138 c52e
000001f0: e2b0 28b1 1b35 b824 4538 e9b8 d1b5 0dad

arith.constant11 f2 [1, 3, 3, 64]
0.05887 0.512 -0.7124 0.5386 0.546 0.4275 0.288 0.838
0.9507 -0.1249 0.774 -0.4414 1.041 -0.5776 -0.2678 0.9834
-0.5923 0.8184 0.3687 -0.319 0.8096 0.705 0.4917 -0.387
0.5054 -0.6343 -0.015594 0.5117 -0.5273 -0.4792 1.023 -0.4238
-0.0193 0.7896 -0.7925 0.8384 -0.5396 0.652 -0.4976 0.6343
0.5703 1.074 -0.639 -0.6426 0.8584 -0.712 0.9087 0.503
-0.05502 -0.768 0.2637 -0.183 -0.7646 0.6523 -0.384 0.78
0.605 0.5376 -0.637 0.678 0.8486 0.6055 0.864 0.828
0.3835 -0.08795 -0.0776 0.4832 1.1 0.05966 0.198 0.02693
0.01464 -0.055 0.3516 -0.1858 -0.098 -0.1242 -1.685 -0.353
-0.682 -0.511 0.556 -0.47 0.0886 0.5093 0.1621 -0.813
0.293 -0.1622 -0.495 0.581 -0.09784 -0.3103 0.2261 -0.209
-0.587 0.172 -0.2815 0.956 -0.2401 0.2118 -0.0911 0.0711
-0.631 -1.1045 -0.563 0.1019 0.3281 -0.3594 0.3806 0.3757
-0.332 -0.257 0.1823 0.02684 -0.1962 -0.02002 -0.6006 0.3542
0.2137 0.738 -0.1989 -0.2003 -0.64 0.1312 0.1838 0.04135
-0.217 0.614 -0.4722 0.914 -0.09406 0.301 0.125 0.0671
0.9395 0.8716 0.7236 0.957 0.6543 -0.781 0.2389 0.5547
-0.6685 0.9604 -0.3606 -0.3694 0.875 0.7974 0.562 -0.10516
1.023 -0.2021 0.29 0.1343 -0.6562 -0.3003 0.6655 -0.4143
-0.8174 0.383 -0.6816 -0.4253 -0.5884 0.9116 -0.1482 0.7075
-0.8335 0.8706 -0.0362 -0.4993 0.6978 -0.828 0.6675 0.5913
0.2898 0.5596 0.2773 -0.941 -0.6436 0.538 0.6333 0.5015
-0.02115 -0.02515 -0.56 0.6196 0.01461 0.4177 0.61 0.8853
0.514 -0.184 0.0737 0.08044 -0.9863 0.1753 -0.01668 -0.1246
0.1908 0.2356 -0.1721 -0.919 -0.1573 -0.3984 -0.2178 -0.269
-0.459 0.27 0.51 -0.11475 -0.1025 -0.12195 -0.006695 -0.582
0.04758 -0.2646 -0.5166 -0.4365 -0.1824 0.2385 -0.3362 0.0402
-0.3203 -0.2734 -0.191 0.3564 -0.0319 -0.00962 -0.81 0.2656
0.3855 -0.6787 -0.4988 -0.2969 -0.5444 -0.1366 -0.1982 0.2063
-0.9873 -0.2808 0.2678 -0.0539 0.518 -0.2261 0.629 -0.2405
0.6084 -0.2123 -0.1768 0.03079 0.05527 -0.2598 -0.02217 -0.1266
00000000: 892b 1938 b3b9 4f38 5e38 d736 9c34 b43a
00000010: 9b3b feaf 313a 10b7 2a3c 9fb8 49b4 de3b
00000020: bdb8 8c3a e635 1bb5 7a3a a439 de37 31b6
00000030: 0b38 13b9 fca3 1838 38b8 abb7 183c c8b6
00000040: f1a4 513a 57ba b53a 51b8 3739 f6b7 1339
00000050: 9038 4c3c 1db9 24b9 de3a b2b9 453b 0638
00000060: 0bab 25ba 3834 dbb1 1eba 3839 25b6 3d3a
00000070: d738 4d38 19b9 6d39 ca3a d838 e93a a03a
00000080: 2336 a1ad f7ac bb37 663c a32b 5632 e526
00000090: 7f23 0aab a035 f2b1 46ae f3af bdbe a6b5
000000a0: 75b9 17b8 7338 85b7 ac2d 1338 3031 81ba
000000b0: b034 31b1 ecb7 a638 43ae f7b4 3c33 b0b2
000000c0: b2b8 8131 81b4 a63b afb3 c732 d5ad 8d2c
000000d0: 0cb9 6bbc 81b8 862e 4035 c0b5 1736 0336
000000e0: 50b5 1db4 d531 df26 47b2 20a5 ceb8 ab35
000000f0: d732 e739 5db2 69b2 1fb9 3330 e231 4b29
00000100: f2b2 e938 8eb7 503b 05ae d134 0030 4b2c
00000110: 843b f93a ca39 a83b 3c39 3fba a533 7038
00000120: 59b9 af3b c5b5 e9b5 003b 613a 7f38 bbae
00000130: 183c 78b2 a434 4c30 40b9 ceb4 5339 a1b6
00000140: 8aba 2136 74b9 ceb6 b5b8 4b3b beb0 a939
00000150: abba f73a a2a8 fdb7 9539 a0ba 5739 bb38
00000160: a334 7a38 7034 87bb 26b9 4e38 1139 0338
00000170: 6aa5 70a6 7bb8 f538 7b23 af36 e138 153b
00000180: 1d38 e3b1 b82c 262d e4bb 9c31 45a4 f9af
00000190: 1b32 8a33 82b1 5abb 09b1 60b6 f8b2 4eb4
000001a0: 58b7 5234 1438 58af 8fae ceaf db9e a8b8
000001b0: 172a 3cb4 22b8 fcb6 d6b1 a233 61b5 2529
000001c0: 20b5 60b4 1db2 b435 15a8 eda0 7bba 4034
000001d0: 2b36 6eb9 fbb7 c0b4 5bb8 5fb0 58b2 9a32
000001e0: e6bb 7eb4 4934 e6aa 2538 3cb3 0839 b2b3
000001f0: de38 cbb2 a8b1 e227 132b 28b4 ada5 0db0

arith.constant12 f2 [1, 3, 3, 96]
0.4814 0.1425 -0.2258 0.351 -0.3691 -0.4365 -0.2812 -0.2131
-0.5967 -0.2278 0.3928 0.304 -0.192 0.2717 0.3945 -0.3276
0.346 0.4106 0.2854 0.2988 0.2417 0.2954 0.2944 0.331
0.1997 -0.11456 0.1555 -0.2236 0.3545 0.364 0.2778 0.4097
0.2754 -0.1283 -0.2766 -0.3096 -0.1553 0.2861 0.3743 0.2783
-0.3284 -0.2944 -0.3247 0.2668 -0.3254 -0.2085 -0.2822 -0.818
0.3662 0.4526 -0.272 0.4075 0.4148 -0.3396 -0.2039 0.4502
0.343 0.005035 0.2986 0.2812 -0.2085 -0.2443 0.2622 0.2925
-0.07275 0.5264 -0.2915 0.293 0.4614 -0.2844 0.3474 0.4143
0.476 0.3062 0.2449 -0.2361 -0.3394 -0.264 0.4685 -0.79
-0.441 0.3574 0.3147 0.3306 0.205 -0.2976 0.1631 0.2378
-0.3357 -0.3494 0.0686 -0.3074 -0.1517 -0.298 -0.2605 -1.242
0.5786 0.1193 -0.2598 0.544 -0.2546 -0.399 -0.4312 -0.3118
-0.5513 -0.188 0.4807 0.4287 -0.2153 0.35 0.4954 -0.3372
0.4219 0.4463 0.4033 0.3633 0.29 0.3694 0.271 0.4727
0.2793 -0.01912 0.1763 -0.294 0.4229 0.3328 0.248 0.3657
0.3118 -0.1869 -0.2568 -0.3137 -0.1614 0.3938 0.4067 0.3208
-0.3079 -0.3374 -0.378 0.2922 -0.461 -0.3792 -0.2886 0.385
0.4456 0.4192 -0.2395 0.485 0.4385 -0.3577 -0.1812 0.5234
0.383 -0.8477 0.3125 0.2532 -0.1068 -0.3447 0.3481 0.3228
-0.0586 0.6074 -0.3018 0.357 0.511 -0.3474 0.3706 0.4368
0.6147 0.4626 0.345 -0.2024 -0.234 -0.28 0.4873 -0.1975
-0.7114 0.4595 0.3464 0.377 0.2925 -0.4902 0.1022 0.3164
-0.508 -0.3555 0.1265 -0.526 -0.0476 -0.334 -0.2487 -0.6733
0.354 0.08374 -0.1875 0.47 -0.1649 -0.301 -0.2058 -0.2074
-0.4927 -0.1501 0.3677 0.2837 -0.0815 0.1813 0.4805 -0.25
0.3284 0.4797 0.36 0.2617 0.2113 0.306 0.1968 0.3066
0.2654 -0.4373 0.158 -0.1948 0.2698 0.2435 0.1514 0.328
0.2566 -0.2307 -0.2803 -0.2795 -0.2354 0.3262 0.328 0.2062
-0.2053 -0.31 -0.2126 0.2493 -0.3208 -0.3901 -0.2566 0.1796
0.3286 0.3364 -0.2126 0.4644 0.408 -0.283 -0.1511 0.401
0.3347 -0.4568 0.2474 0.2456 -0.2438 -0.3154 0.3127 0.2349
00000000: b437 8f30 3ab3 9e35 e8b5 fcb6 80b4 d2b2
00000010: c6b8 4ab3 4936 dd34 25b2 5934 5036 3eb5
00000020: 8935 9236 9134 c834 bc33 ba34 b634 4c35
00000030: 6432 55af fa30 28b3 ac35 d335 7234 8e36
00000040: 6834 1bb0 6db4 f4b4 f8b0 9434 fd35 7434
00000050: 41b5 b6b4 32b5 4534 35b5 acb2 84b4 8bba
00000060: dc35 3e37 5ab4 8536 a336 6fb5 86b2 3437
00000070: 7d35 281d c734 8034 acb2 d1b3 3234 ae34
00000080: a8ac 3638 aab4 b034 6237 8db4 8f35 a136
00000090: 9e37 e634 d633 8eb3 6eb5 39b4 7f37 52ba
000000a0: 0eb7 b835 0935 4a35 8f32 c3b4 3831 9c33
000000b0: 5fb5 97b5 642c ebb4 dbb0 c5b4 2bb4 f8bc
000000c0: a138 a32f 28b4 5a38 13b4 62b6 e6b6 fdb4
000000d0: 69b8 04b2 b137 dc36 e4b2 9a35 ed37 65b5
000000e0: c036 2437 7436 d035 a434 e935 5634 9037
000000f0: 7834 e5a4 a431 b4b4 c436 5335 f033 da35
00000100: fd34 fbb1 1cb4 05b5 2ab1 4d36 8236 2235
00000110: edb4 66b5 0cb6 ad34 60b7 11b6 9eb4 2936
00000120: 2137 b536 aab3 c337 0437 b9b5 ccb1 3038
00000130: 2136 c8ba 0035 0d34 d6ae 84b5 9235 2a35
00000140: 80ab dc38 d4b4 b635 1738 8fb5 ee35 fd36
00000150: eb38 6737 8535 7ab2 7db3 7bb4 cc37 52b2
00000160: b1b9 5a37 8b35 0836 ae34 d8b7 8a2e 1035
00000170: 10b8 b0b5 0c30 35b8 18aa 58b5 f5b3 63b9
00000180: aa35 5c2d 00b2 8537 47b1 d1b4 96b2 a3b2
00000190: e2b7 ceb0 e235 8a34 37ad cd31 b037 00b4
000001a0: 4135 ad37 c335 3034 c332 e534 4c32 e834
000001b0: 3f34 ffb6 0e31 3cb2 5134 cb33 d830 3f35
000001c0: 1b34 62b3 7cb4 79b4 88b3 3835 3f35 9932
000001d0: 92b2 f6b4 ceb2 fa33 22b5 3eb6 1bb4 bf31
000001e0: 4235 6235 ceb2 6e37 8736 87b4 d6b0 6a36
000001f0: 5b35 4fb7 eb33 dc33 cdb3 0cb5 0135 8433

arith.constant13 f2 [32]
0.006943 -0.4597 -0.776 -0.4785 0.4307 -0.8623 -0.56 0.9146
-1.131 -0.607 -0.5586 -0.4487 -0.1166 -0.2174 -1.037 0.3862
-0.639 0.6924 -0.4443 -0.8984 0.5576 -0.4568 0.6987 0.36
-0.0958 -1.054 -0.776 -0.5845 -1.256 -0.5596 -1.003 1.072
00000000: 1c1f 5bb7 35ba a8b7 e436 e6ba 7bb8 513b
00000010: 86bc dbb8 78b8 2eb7 76af f5b2 26bc 2e36
00000020: 1db9 8a39 1cb7 30bb 7638 4fb7 9739 c335
00000030: 22ae 37bc 35ba adb8 06bd 7ab8 03bc 4a3c

arith.constant14 f2 [64]
-0.478 -0.3027 1.026 0.8477 -0.654 0.265 -0.6187 -0.0799
-0.269 -0.1433 1.121 0.363 -0.2172 -0.578 -1.232 -0.43
-0.504 1.391 0.1906 0.868 -0.4468 0.04877 0.381 -0.0508
-0.6387 1.089 -0.614 0.278 0.8677 -0.09155 -0.5513 0.2052
0.5034 0.92 -0.5947 -0.483 0.04922 -0.509 0.10504 0.121
0.5303 -0.77 0.674 -1.019 -1.172 -0.804 -0.6953 0.584
-1.274 -0.4602 -0.8643 0.503 -0.03058 -0.7676 0.814 -0.643
0.5615 -1.541 -0.1272 -0.902 0.2067 -0.887 0.741 -0.1464
00000000: a6b7 d8b4 1b3c c83a 3bb9 3d34 f3b8 1dad
00000010: 4eb4 96b0 7c3c cf35 f3b2 a0b8 eebc e1b6
00000020: 08b8 903d 1932 f23a 26b7 3e2a 1936 81aa
00000030: 1cb9 5b3c e9b8 7334 f13a dcad 69b8 9132
00000040: 0738 5c3b c2b8 bab7 4d2a 12b8 b92e be2f
00000050: 3e38 29ba 6439 13bc b0bc 6fba 90b9 ac38
00000060: 19bd 5db7 eaba 0638 d4a7 24ba 833a 25b9
00000070: 7e38 2abe 12b0 37bb 9d32 19bb ee39 afb0

arith.constant15 f2 [64]
0.549 -0.408 -0.5728 0.2415 -0.5684 0.549 -0.955 -0.8447
0.01484 1.207 -0.04425 1.486 0.572 -0.609 -0.6743 0.6733
0.8984 0.2688 1.135 1.083 -0.1572 0.4446 1.139 0.744
-1.242 1.312 -1.128 -0.8403 -1.274 -0.3506 1.395 -1.198
-1.269 1.649 -0.4592 -1.029 -0.8926 1.161 -1.224 -0.5903
0.9272 0.845 -1.309 0.025 0.4902 -0.562 -0.8774 -0.1538
0.6816 -0.503 0.1019 0.966 -0.7734 -0.495 -0.0975 -0.2979
0.973 -0.5522 -1.033 -0.581 -1.011 -0.1299 1.023 -0.909
00000000: 6438 87b6 95b8 ba33 8cb8 6438 a4bb c2ba
00000010: 9923 d43c aaa9 f23d 9338 dfb8 65b9 6339
00000020: 303b 4d34 8a3c 553c 08b1 1d37 8e3c f439
00000030: f8bc 3f3d 83bc b9ba 19bd 9cb5 943d cbbc
00000040: 13bd 993e 59b7 1ebc 24bb a53c e5bc b9b8
00000050: 6b3b c33a 3cbd 6626 d837 7fb8 05bb ecb0
00000060: 7439 06b8 862e ba3b 30ba ecb7 3dae c4b4
00000070: c93b 6bb8 22bc a6b8 0bbc 28b0 183c 46bb

arith.constant16 f2 [64]
-0.5103 -0.4026 0.465 0.191 -0.3171 -1.713 -0.1098 0.1339
0.0725 1.088 -1.042 -0.934 -0.557 -0.2947 1.126 -0.3906
-0.1926 -0.2817 -0.2456 0.0795 -0.522 -0.949 -0.9204 -0.8066
-0.743 0.9697 -0.684 -1.018 0.1826 -0.6797 -0.3835 -0.7075
-0.2173 -0.2905 0.084 0.1421 0.0787 -0.4424 -0.335 -1.636
0.2435 0.31 -0.422 -0.02554 0.1796 0.3564 -0.012024 0.3628
0.04358 0.2568 -0.3098 0.652 -0.524 0.4504 -0.7085 -0.06683
-0.04028 0.611 0.584 -0.8833 -0.02888 -1.037 -0.7744 -1.885
00000000: 15b8 71b6 7137 1d32 13b5 dabe 07af 4930
00000010: a42c 5a3c 2bbc 79bb 75b8 b7b4 813c 40b6
00000020: 2ab2 82b4 dcb3 172d 2db8 98bb 5dbb 74ba
00000030: f2b9 c23b 79b9 12bc d831 70b9 23b6 a9b9
00000040: f4b2 a6b4 602d 8c30 092d 14b7 5cb5 8bbe
00000050: cb33 f634 c1b6 8aa6 bf31 b435 28a2 ce35
00000060: 9429 1c34 f5b4 3739 31b8 3537 abb9 47ac
00000070: 28a9 e338 ac38 11bb 65a7 26bc 32ba 8abf

arith.constant17 f2 [64]
-0.02385 -0.842 1.088 -1.255 -0.534 -0.83 -0.01788 -0.7905
-0.7783 -0.0669 -0.653 0.1647 -0.788 1.21 0.8794 -0.768
1.432 -0.837 -0.5947 0.9243 -0.6484 -0.9897 -0.7603 0.592
-0.4065 1.051 0.1823 0.3538 0.935 0.805 -0.822 0.7944
0.7915 -1.023 0.9897 -0.7324 1.124 -0.8784 0.7485 -0.8125
-0.02023 -0.692 0.47 1.095 -1.016 1.23 -0.7197 0.1853
0.6987 0.4753 -0.846 0.9263 0.7397 -0.9766 -0.4878 -1.008
-0.8438 -0.98 1.358 -0.7183 -0.1282 -0.673 -0.91 -0.7476
00000000: 1ba6 bcba 5a3c 05bd 46b8 a4ba 94a4 53ba
00000010: 3aba 48ac 39b9 4531 4eba d73c 093b 25ba
00000020: ba3d b2ba c2b8 653b 30b9 ebbb 15ba bc38
00000030: 81b6 343c d531 a935 7b3b 713a 93ba 5b3a
00000040: 553a 18bc eb3b dcb9 7f3c 07bb fd39 80ba
00000050: 2ea5 89b9 8537 613c 10bc ec3c c2b9 ee31
00000060: 9739 9b37 c5ba 693b eb39 d0bb ceb7 08bc
00000070: c0ba d7bb 6f3d bfb9 1ab0 62b9 48bb fbb9

arith.constant18 f2 [96]
-0.548 -0.919 -0.3835 0.2642 0.4192 0.0771 0.2695 -0.1537
-0.449 -0.8125 0.407 -0.7964 -0.929 -0.876 -1.251 0.1159
-0.6953 -0.2522 0.000509 -0.767 -0.1587 -0.641 -0.207 0.1755
-0.03036 -1.209 -0.1772 0.01851 -0.1746 -0.8057 -1.033 0.52
-0.802 0.09674 0.0698 -0.2246 -0.4214 0.833 0.3499 -0.4688
-0.3232 -0.4216 0.2947 -0.8975 0.509 -0.5044 0.0423 0.344
0.5386 0.2083 -0.2847 0.4497 0.8457 -0.1542 -0.2169 0.391
0.9585 -0.3713 -0.4211 0.171 -0.55 0.4343 -0.519 -0.3035
0.007328 0.265 -0.0794 -0.5254 0.2162 -0.1954 0.3157 -0.4365
0.422 0.352 -0.0447 -0.939 -0.2025 -0.2976 1.41 -0.0397
-0.837 -0.7764 -1.486 0.481 0.1162 -0.2537 -0.3606 -0.528
0.4207 0.551 -0.08215 -0.627 0.2988 0.154 0.157 -1.043
00000000: 62b8 5abb 23b6 3a34 b536 ef2c 5034 ebb0
00000010: 2fb7 80ba 8336 5fba 6fbb 02bb 01bd 6b2f
00000020: 90b9 09b4 2b10 23ba 14b1 21b9 a0b2 9e31
00000030: c6a7 d6bc acb1 bd24 96b1 72ba 22bc 2938
00000040: 6aba 312e 782c 30b3 beb6 aa3a 9935 80b7
00000050: 2cb5 bfb6 b734 2ebb 1238 09b8 6a29 8135
00000060: 4f38 aa32 8eb4 3237 c43a efb0 f1b2 4236
00000070: ab3b f1b5 bdb6 7931 66b8 f336 27b8 dbb4
00000080: 811f 3d34 15ad 34b8 eb32 41b2 0d35 fcb6
00000090: c136 a235 b9a9 83bb 7bb2 c3b4 a43d 15a9
000000a0: b2ba 36ba f2bd b237 702f 0fb4 c5b5 39b8
000000b0: bb36 6838 42ad 04b9 c834 ee30 0631 2cbc

arith.constant19 f2 [96]
-0.11816 0.04178 0.4124 -0.7393 0.717 0.9375 1.154 0.59
0.2537 0.4841 -0.9507 -1.076 0.637 -0.8223 -0.797 1.099
-0.8994 -0.78 -0.7734 -0.7905 -0.702 -0.658 -0.5723 -1.083
-0.688 0.2369 -0.6436 0.8784 -0.721 -0.8237 -0.651 -0.9263
-0.6387 0.6123 0.7886 1.081 0.6343 -0.9287 -0.795 -0.601
0.8394 0.7817 1.166 -0.6914 1.564 0.4304 1.011 -0.006824
-0.809 -0.8086 0.809 -0.925 -0.746 1.093 0.447 -0.8384
-0.812 0.0749 -0.6626 -0.4922 0.5664 0.7124 -0.7827 -0.696
0.2478 -0.8555 0.8096 -0.6587 -0.9487 0.5283 -0.8687 -0.7505
-0.931 -0.9844 -0.6567 0.4407 0.3352 0.9116 -0.912 0.5156
0.1355 -0.734 -0.721 -0.8506 -0.792 0.3608 -0.524 -0.567
1.016 0.9893 0.374 0.261 0.131 0.8516 0.554 -0.1711
00000000: 90af 5929 9936 eab9 bc39 803b 9e3c b838
00000010: 0f34 bf37 9bbb 4ebc 1939 94ba 60ba 653c
00000020: 32bb 3dba 30ba 53ba 9eb9 44b9 94b8 55bc
00000030: 81b9 9533 26b9 073b c5b9 97ba 35b9 69bb
00000040: 1cb9 e638 4f3a 533c 1339 6ebb 5cba cfb8
00000050: b73a 413a aa3c 88b9 423e e336 0b3c fd9e
00000060: 79ba 78ba 793a 66bb f8b9 5f3c 2737 b5ba
00000070: 7fba cb2c 4db9 e0b7 8838 b339 43ba 91b9
00000080: ee33 d8ba 7a3a 45b9 97bb 3a38 f3ba 01ba
00000090: 73bb e0bb 41b9 0d37 5d35 4b3b 4cbb 2038
000000a0: 5630 dfb9 c5b9 ceba 56ba c635 31b8 89b8
000000b0: 103c ea3b fc35 2d34 3130 d03a 6f38 7ab1

arith.constant20 f2 [128]
-0.168 -0.651 -0.536 0.04587 0.762 -0.1814 -0.1875 1.222
-0.527 -0.3528 -0.001865 -0.4504 -0.1323 0.0562 0.3838 -0.558
-0.692 -0.5474 -0.3323 -0.01721 -0.3118 -0.7163 -0.1969 -0.599
-0.1896 -0.06793 -0.588 -0.392 -0.435 -0.336 -1.008 -0.2722
0.7744 -0.0712 -0.933 -0.667 0.05435 0.2866 -0.7256 -0.3723
-0.511 -0.966 -0.3633 -0.1771 -0.7534 -0.681 -0.3572 -0.01174
-0.636 -0.381 -0.9976 -0.386 -0.892 -0.5625 -0.2915 -0.7505
-0.6035 -0.2952 -0.749 -0.719 -0.631 -0.005947 -0.626 -0.6772
-0.24 -0.09174 -0.3923 -0.638 0.338 -0.7354 -0.475 -0.677
-0.0795 0.0355 -0.732 0.1105 0.1494 0.4028 -0.4592 -0.7505
-0.0925 -0.6133 -0.0502 -0.4001 -0.3677 -0.747 -0.3833 -0.4827
-0.454 -0.5693 0.667 -0.2983 0.1096 0.2073 -0.971 0.1111
-0.1688 0.0274 -0.6978 -0.2319 -0.4995 -0.4028 -0.541 -0.388
-0.591 -0.685 -0.04022 -0.367 -0.6777 -0.924 -0.866 -0.7676
-0.748 -0.596 0.386 -0.5923 -0.6987 -0.03543 -0.4958 0.2443
-1.103 -0.1782 -0.7495 -0.825 -0.8086 -0.2308 0.00432 0.1423
00000000: 60b1 35b9 4ab8 df29 193a ceb1 00b2 e33c
00000010: 37b8 a5b5 a497 35b7 3cb0 322b 2436 77b8
00000020: 89b9 61b8 51b5 68a4 fdb4 bbb9 4db2 cbb8
00000030: 11b2 59ac b4b8 46b6 f6b6 60b5 08bc 5bb4
00000040: 323a 8fac 77bb 56b9 f52a 9634 ceb9 f5b5
00000050: 17b8 babb d0b5 abb1 07ba 73b9 b7b5 03a2
00000060: 17b9 19b6 fbbb 2db6 23bb 80b8 aab4 01ba
00000070: d4b8 b9b4 feb9 c1b9 0cb9 179e 02b9 6bb9
00000080: aeb3 dfad 47b6 1bb9 6835 e2b9 9ab7 6ab9
00000090: 17ad 8b28 dbb9 122f c830 7236 59b7 01ba
000000a0: ecad e8b8 6daa 67b6 e2b5 fab9 22b6 b9b7
000000b0: 44b7 8eb8 5639 c6b4 042f a232 c5bb 1c2f
000000c0: 67b1 0427 95b9 6cb3 feb7 72b6 54b8 35b6
000000d0: bab8 7bb9 26a9 dfb5 6cb9 64bb eeba 24ba
000000e0: fcb9 c5b8 2d36 bdb8 97b9 89a8 efb7 d133
000000f0: 69bc b4b1 ffb9 9aba 78ba 63b3 6c1c 8e30
